save/SupCon/SupCon.pth (torch, 469106 bytes, 16 tensors)

conv1.weight f4 [12, 6, 5, 5]
00000000: 51b7 f83c 2fb0 423c 22b3 f0bc f663 a23c
00000010: b54b c7bc 3cff 13bd 5a85 353c 6e54 9ebc
00000020: 14c5 ee3c cee8 f93a 0dbc 9ebc f686 c3bc
00000030: 13cb 943a c2f7 523c 81c3 2bbd fc7d 773c
00000040: b2fe adbc ce34 a83c cb3c 0ebd bdb7 473c
00000050: 3eab c23c 1c6a 03bd a977 ebbc 0ac2 8e3c
00000060: cad1 1abc 4bdf 953b ca51 553b fcbf 9dbc
00000070: 715e f83c b31f 273c a0ff 67bc 479a 97bc
00000080: e6cf 863c e4ab 49bc 0431 823c 1fd2 e33c
00000090: 53fa e43c 1793 c93b 15ba f3bc 6429 eebc
000000a0: 1644 633c 4e6f 27bd f4b8 07bd db43 8b3c
000000b0: f52f 80bc 12b2 30bc 7a34 c23c 8779 07bd
000000c0: b1c0 ac3c d4e0 84ba 04a7 fbbb f55c 083d
000000d0: 7eb9 a1bc be27 cfbb 6e54 c03c a3e5 d9bc
000000e0: 0c5f 913b ade4 69bc 44dd 163c 6f5d 16bd
000000f0: 0622 543b ec7e aebb b70f 9e3b 63a4 0b3c
00000100: e39b ab3c 92ce 4fbb 4890 2bb8 6b79 583a
00000110: a61f 7fbc 6bad 823c 8e12 1bbd 7641 b4bc
00000120: e2f9 1bbc a608 0ebc f999 a9bc 7bf9 71bc
00000130: c8c7 723b 8b4c fc3b dc4a eaba 18ff 33bd
00000140: e93e a6bc 75d8 98bc 84f4 cebc 3c25 9dbb
00000150: e0af a63c 53cc 3d3c f804 ae3b 4b4d 2dbc
00000160: 4e0e 833c 6ee6 cbbb 93f6 143c 25a1 79bc
00000170: 9a9e 95bc 9e6f 0ebd cc38 82bc 7b01 88bc
00000180: a84c 863c 4aa6 c73c 59a4 963c 568b 2dbc
00000190: de01 bebc f97a d23b 1ea2 4ebc 65a8 59bb
000001a0: 3de4 3b3c f662 0ebd 35bc 10bd bda5 e0bc
000001b0: 3a11 06bd 3c6f a9bc 71f9 febc 27f5 b03c
000001c0: cee8 053c d61a 22bd 605a eebb 7e2a 533c
000001d0: 9fa9 f5bc c613 e9bc 3ecd a73c e0a6 f9bc
000001e0: 195c 4a3c 5058 1fbd 00ed 8d3c cdee dabc
000001f0: 0818 853c e28c 9b3c d3d5 01bb 2332 e03c
00000200: 5650 f2bc 3725 03bb c6eb 463c 3cae 28bc
00000210: a127 04bd a4c1 1b3c fa6b 2fbc 5732 bc3c
00000220: cfda 22bd 55d1 c23c 4017 bb3b e8e0 cb3c
00000230: a787 6dbc 7a74 0ebd d498 04bd 246b 27bc
00000240: b6fa 38bd cbdf c9bc dc75 f5bc 19f1 933c
00000250: dfce bdbc 7ce6 fd39 b945 123f eace 473e
00000260: 0de2 803e 354d 773e b9c1 7c3e d129 b33e
00000270: bebd ccbd d7d1 01bf 95d5 d6be b8f6 7b3d
00000280: aca9 ba3e 76b2 86be d98f 92bf 8b9d 82bf
00000290: 6316 aa3d 8498 e53e b47a 1dbe 24be 1bbf
000002a0: 2732 02bf 5db6 583d 16dc 353e 532b 9d3d
000002b0: 17bd 763e fb58 6c3e d122 f23c 46fa 5f3e
000002c0: a91c 413d 350e 4b3d e16f c83d a2c7 b63d
000002d0: 7f98 723e ec7b 053e d277 ffbd b157 b0bd
000002e0: 0e6c f83d 8159 943e 8cee 053e eab1 13be
000002f0: 8309 36be 7030 2a3e 9e15 b03e 0669 893d
00000300: 019a 88bd 1c4e 00be 351e b13d 4efd 3f3e
00000310: 54b1 4e3d a868 7f3d f2ba 933d bfbe 5bbd
00000320: b3bf 08bf c44c 21be e8c1 033d 2273 823d
00000330: 8047 84be 23a9 f7be 919a 4f3e 119b 323f
00000340: 887a 253f 4432 72bb 2498 ccbe c5e0 c43e
00000350: 0122 a03f f8e8 8f3f 64da 2a3e 42e9 a9be
00000360: ce9f 903e dfd9 453f 7a07 413f 18d0 093e
00000370: a77e 97be a0c2 40bd 1e7d be3c f714 9d3d
00000380: 1133 ccbd 46f8 23be eef6 7abd a391 30bc
00000390: a612 4bbd 142a 28be f28a d3bd 3e1b 2bbe
000003a0: c6f4 abbd ca6a 76bd 4692 4cbe 286d 183c
000003b0: a772 b33c 77a7 e1be f744 b5be 9a1a a23c
000003c0: 7003 23be 4e9f 03be d64f 70be df4b 9cbe
000003d0: d451 26be 6b91 aebd 3431 7abe b487 473d
000003e0: e3f3 9e3d 1539 e1bd 4ae1 4d3d 65b3 b23e
000003f0: 9699 543e 6fd1 643e aa00 ee3e 6eb9 913e
0.03036085 0.011882826 -0.029382292 0.019823056 -0.024328092 -0.036132082 0.011079157 -0.019327369
0.029146709 0.0019066574 -0.019376779 -0.023868065 0.0011352025 0.012876453 -0.041934494 0.015105721
-0.021239612 0.020532992 -0.034725945 0.012189803 0.023763295 -0.032083616 -0.028743582 0.01742651
-0.009449432 0.0045737377 0.003254997 -0.019256584 0.03031847 0.010200429 -0.014160067 -0.018506182
0.016456556 -0.012309048 0.015892513 0.027810154 0.027951395 0.0061515677 -0.029751817 -0.029072471
0.013871213 -0.040877633 -0.03313537 0.01700013 -0.015647868 -0.010784643 0.023706663 -0.033074882
0.021087976 -0.0010137805 -0.007679822 0.033291776 -0.01974177 -0.0063218763 0.02347776 -0.026598757
0.0044363793 -0.014275712 0.009208027 -0.0367102 0.0032368912 -0.005325189 0.0048236507 0.00852308
0.020948356 -0.003170882 -4.090395e-05 0.0008257839 -0.01557151 0.015951833 -0.037859492 -0.02200387
-0.009520026 -0.008669054 -0.020703303 -0.014768953 0.0037045348 0.0076995543 -0.0017875093 -0.04394445
-0.02029367 -0.018657902 -0.025263079 -0.0047956984 0.020347536 0.011584359 0.005310651 -0.01057751
0.015998032 -0.0062225377 0.009091991 -0.015236174 -0.018264104 -0.034774415 -0.015896223 -0.016602268
0.016393974 0.024371285 0.018388914 -0.010592302 -0.02319425 0.006423351 -0.012611894 -0.0033211943
0.01146799 -0.034762345 -0.03533574 -0.02742278 -0.032731272 -0.020682923 -0.031124802 0.021601273
0.008173181 -0.039576374 -0.007273957 0.012888549 -0.029988108 -0.028451812 0.02048361 -0.03047508
0.012351059 -0.03890258 0.017324924 -0.026725197 0.01624681 0.018988077 -0.0019811287 0.027367657
-0.029579323 -0.0020011195 0.012141174 -0.010295447 -0.032264356 0.009506617 -0.010706896 0.022973223
-0.039759453 0.023781458 0.0057095587 0.024887517 -0.014497674 -0.03477905 -0.03237231 -0.010218415
-0.04516097 -0.024642846 -0.029963426 0.0180593 -0.023169933 0.00048427645 0.5713764 0.19512525
0.25172463 0.24150546 0.24683274 0.3499284 -0.09997128 -0.50710815 -0.41959825 0.061514586
0.36457574 -0.2630803 -1.1450149 -1.0204328 0.08305051 0.44842923 -0.15378839 -0.60837007
-0.50857776 0.05290829 0.17759737 0.07674279 0.2409557 0.23080818 0.029557617 0.21872815
0.047146473 0.049574096 0.09786964 0.08924796 0.23690985 0.13035554 -0.12474026 -0.08610476
0.12129985 0.28974536 0.1307928 -0.14423338 -0.17777066 0.1662004 0.34391493 0.06709485
-0.06669999 -0.12529796 0.0864834 0.18748972 0.050462082 0.062355667 0.07213391 -0.053648707
-0.5341751 -0.1575194 0.032167345 0.06369616 -0.258358 -0.4837123 0.20273806 0.6976786
0.6464009 -0.003695623 -0.39959824 0.38452736 1.2510377 1.1242971 0.16684872 -0.33185774
0.2824692 0.7728557 0.75402033 0.13458288 -0.29588816 -0.04706061 0.02325302 0.07670014
-0.09970678 -0.16012678 -0.061270647 -0.01077691 -0.04957833 -0.16422302 -0.10329236 -0.16709611
-0.08396296 -0.060160436 -0.19977674 0.009303369 0.021905256 -0.44073078 -0.35404179 0.019788075
-0.1591928 -0.12853739 -0.23467955 -0.30526635 -0.16242152 -0.0852383 -0.24432832 0.0487134
0.077613614 -0.10997216 0.05026368 0.34902492 0.20761713 0.22345518 0.46484882 0.28461784

conv1.bias f4 [12]
00000000: ee41 9dbd 594d b4bc 710c 47bd 77f1 823d
00000010: 8634 1ebe fd93 2dbe 6f8e f63e 507f 30bf
00000020: 71bc 14bc 48d6 c53d d530 3b3e 2c43 933d
-0.07678591 -0.022009538 -0.04859585 0.06393712 -0.15449724 -0.16950984 0.48155543 -0.68944263
-0.009078131 0.096600115 0.18280347 0.071905464

conv2.weight f4 [24, 12, 3, 3]
00000000: 6f7f bdbc 9d43 0b3d ba84 983b f50b c8bc
00000010: 336c 193a ddfb 843c 7fec e5bc f3e9 f7bc
00000020: ad8b 11bd 6601 93be 8be1 013f f209 df3e
00000030: b7d3 efbe ba3e 57be 8194 57be b1ef 8fbd
00000040: 2594 af3e f79f a93e ad8b e33c 3a0e 2ebc
00000050: e1ef 0ebc 94b9 4d3c 3c65 6d3c 2afb 213c
00000060: 251b 5d3c 182a 253a 2ed0 fb3c 932b 1dbd
00000070: ab52 8dbd 462c 803b 89fa 0a3d 6be7 8a3e
00000080: 1726 373e 85f2 8dbd 810f 343e c272 7e3e
00000090: 396c 303e 38e7 4f3d d6c8 503d bae3 443e
000000a0: ed1e a23e 0b40 893e 2f2b 9d3c 7f6b 5e3c
000000b0: 0207 483d 6180 3fbc a6e6 833c 88c9 f0bb
000000c0: 6100 a2bc f937 13bc 1210 1abc df80 19bd
000000d0: 9dc0 153d b26f 963c 4d6d a83d 074f e0bc
000000e0: a75f babd aba4 c83d 1bc9 443e 661f c0be
000000f0: 585c 08be 8acd 743e 6062 48bd c834 32be
00000100: 1af0 c7bd 2251 ecbd 9a32 04be 1666 c9be
00000110: d05e 56be 98a5 cf3c 0921 82bc 0041 23bc
00000120: 8ab1 103e 8e5c b2bd 6a7b 27be 4c2f 063e
00000130: 72cf 7d3d bae8 cb3d f31b 80bd 6033 9bbd
00000140: 852a 17bd 70b1 853d f873 063e 7ee2 bbbc
00000150: 00ad f33d a7b0 fdbd 3890 c9be 7579 92be
00000160: 8e12 a2be ad0d 183d c483 1dbe e50a a6be
00000170: 83ae e03c 5162 d7bb 5f3f 8fbe 49e3 9fbe
00000180: b33c 44be c0e1 97be 916f 7bbe 7dc3 0f3e
00000190: e8ec 2c3d 3274 c53d dcba 013f 4994 453d
000001a0: e668 d73d 60c4 a33e 4949 c43d 7ad9 923e
000001b0: 050d 1a3c 04c3 fcbb 88ed 9d3c c021 b1bc
000001c0: 4a52 f53c f1d8 ca3c 2600 b43c 096b 15bd
000001d0: 63a2 dfbb 1ee2 a7bd f7af 473d 542c 8f3e
000001e0: 0924 a5be 2c6a f2be 5569 bfbe 92f8 4a3e
000001f0: 161a 503e 740d 49bd 38c3 0cbd eb34 82bc
00000200: 4b9e 03bd fd4b acbc a6d7 903b cfa6 00bd
00000210: 726e 053b 095f d53c 8dea 83bb 6be7 5b3e
00000220: 259a a23e 0e39 1b3e 7539 383e 4af1 d03d
00000230: 442f 663d dfc3 c1bc 1009 b9bd ab18 213d
00000240: aa64 26be 1616 56bd 8c14 cfbd 2cee 56be
00000250: ecec c5bd 37f9 0cbe 1491 47be c16d e1bd
00000260: dc0f a7bd c4be 0f3d eddd a8b9 3fee 123d
00000270: c2cb 293d c6f9 243d 74b6 213d 3147 bbbc
00000280: 8dcd b7bc 5b34 cfbc ac64 103e 3579 9e3e
00000290: a82b 863d dd16 5e3d dc0a 473e 912c 063f
000002a0: d37e b23c fc51 213d c93d a33e 4daa 733e
000002b0: 3f93 b9bb 39bd 0b3e bbe9 a13e 531e 9e3d
000002c0: 822f 2d3e 6c5e 213e b80a c1bc d83a 003e
000002d0: 3651 a7bd 774e 24be afe0 65bd e64c 63bb
000002e0: 49fa 103d 3110 cbbd 6633 97be ec16 0ebe
000002f0: 3b0c 2dbe 6071 96bc dab8 20be 8f57 e9bd
00000300: ae98 323e 5791 583d a6f2 32be aad7 bb3d
00000310: dd32 0bbe fc27 073d 8c56 91bc 18aa e2bd
00000320: 8c21 f6bd 5372 223a 9e3e c8bd 0788 48bd
00000330: bf0a 643d 21b9 f5bd 1f8a 1fbe 6f9a 9a3d
00000340: 05c2 3c3e d0ae 6dbc b0bb 5ebd fb41 d23e
00000350: 7881 e93b 06b8 5dbc 0f6e e83c 5f78 8abd
00000360: 3924 53ba af49 a3ba 1e4c a83c 1e39 34bc
00000370: 04b8 073d 44c4 0ebc b08e 113d 149a bb3c
00000380: 06d1 8b3b c14d 89be 6750 89bd 32f3 a93e
00000390: 4f5d f13c 7f5d 50be 7a5f 13bd 3a2a 723e
000003a0: c545 db3d 9c2f 0abd ee75 c0bc 27fb 81bb
000003b0: 8a90 15bd e3d9 10bd b79b 1f3d 23c9 e6bc
000003c0: aed6 8d3c 9fd0 edbc bdb0 c83c 87ed 7cbc
000003d0: f05b bdbe eb7d 78be 62a7 80be dc9a 05bf
000003e0: 0cd7 04bf 4c0a 1cbd 6f17 72be 6767 02be
000003f0: 32ed 2abd c809 debc 64d3 95bc a459 f13d
-0.023132054 0.034000028 0.004654494 -0.024419764 0.000585261 0.016233379 -0.028066872 -0.030262923
-0.035533596 -0.28712004 0.50734776 0.43562275 -0.46841213 -0.21020022 -0.21052743 -0.070281394
0.34292713 0.33129856 0.027776564 -0.010623509 -0.008724184 0.012556452 0.014489468 0.009886542
0.013495241 0.0006300523 0.030738916 -0.038371634 -0.06900533 0.003911528 0.033930335 0.27129683
0.17885624 -0.069310226 0.1758404 0.24848464 0.17228784 0.050757617 0.050972782 0.19227496
0.3166422 0.26806673 0.01918563 0.013575434 0.04883481 -0.011688323 0.016101193 -0.007348243
-0.019775571 -0.008985513 -0.0094032455 -0.037476417 0.036560643 0.018363807 0.082239725 -0.027381433
-0.091002755 0.09797033 0.1921734 -0.37523955 -0.13316476 0.23906532 -0.048921943 -0.17402947
-0.097625926 -0.11538912 -0.12909928 -0.39335698 -0.20934606 0.025347516 -0.015884893 -0.009964228
0.14130226 -0.0870906 -0.16355672 0.1310398 0.061965413 0.099564984 -0.06255331 -0.075781584
-0.036905784 0.06527984 0.13130176 -0.022935148 0.118982315 -0.123872094 -0.39367843 -0.2860829
-0.3165478 0.037122417 -0.15382296 -0.32430187 0.027426964 -0.0065729995 -0.27978036 -0.31228092
-0.1916378 -0.2966442 -0.24554278 0.14039417 0.04221812 0.09641303 0.5067575 0.04823712
0.10518055 0.3198576 0.095842905 0.28681546 0.009402518 -0.0077136774 0.019278303 -0.021622539
0.029946465 0.024761649 0.021972727 -0.03647903 -0.006824778 -0.08197425 0.048751798 0.27963507
-0.32254055 -0.47346628 -0.3738505 0.19821385 0.20322451 -0.049085096 -0.034365863 -0.015894374
-0.03213338 -0.021032328 0.0044202385 -0.03140908 0.002036002 0.026046293 -0.0040257634 0.21474998
0.31758228 0.15158483 0.17990668 0.10202272 0.05619742 -0.023652969 -0.09034932 0.039330166
-0.16249338 -0.052267157 -0.10111341 -0.20989293 -0.0966433 -0.13766943 -0.19488937 -0.11007262
-0.08157322 0.035094038 -0.00032208805 0.03587174 0.041454084 0.040277265 0.03948064 -0.022861095
-0.022436881 -0.02529352 0.14100903 0.3095185 0.065512955 0.054221023 0.19437736 0.5241175
0.02178899 0.039384827 0.31883076 0.23795433 -0.005663305 0.13646401 0.31623635 0.07720628
0.16912654 0.15758675 -0.023564681 0.12522447 -0.08169787 -0.16045557 -0.056122478 -0.0034683286
0.03539494 -0.09915198 -0.295314 -0.13875932 -0.16899197 -0.018364608 -0.15695515 -0.113936536
0.17441055 0.052872982 -0.17475376 0.09171994 -0.13593622 0.032997116 -0.017741464 -0.11067599
-0.12018117 0.0006196845 -0.09777568 -0.04895785 0.05567431 -0.11998201 -0.15580033 0.07548987
0.18433388 -0.014507011 -0.05437821 0.41065964 0.0071260296 -0.013532644 0.028372793 -0.0676124
-0.0008054409 -0.0012457873 0.020544108 -0.010999946 0.033134475 -0.008713786 0.035536468 0.022900619
0.004266861 -0.26817134 -0.06704789 0.33193356 0.029463438 -0.20348166 -0.035979725 0.2364892
0.10706667 -0.03373681 -0.023493733 -0.0039667073 -0.036514796 -0.035364043 0.03896686 -0.028172081
0.017314281 -0.029030142 0.024498338 -0.01543749 -0.36984205 -0.24266784 -0.25127703 -0.5218942
-0.51890635 -0.038095757 -0.23641752 -0.12734757 -0.041730113 -0.027104273 -0.018289275 0.11784676

conv2.bias f4 [24]
00000000: 3aba a13d 6eae c2bd f5de b33e dac5 95bd
00000010: e41f 8fbe a90f a43e 50d7 8e3e 5874 983d
00000020: 39ef b6bd 2967 ca3d adf0 2c3e 1a0a 1d3d
00000030: 2958 133e 2556 a03e a233 973e c610 01bf
00000040: dd3b 593e 6988 c6bd f05e 99bd 657a 58be
00000050: b934 2bbe e2ad 2abe f35c c3bd 105d 08bd
0.07896848 -0.09505926 0.3513104 -0.07313128 -0.27954018 0.32043198 0.27898645 0.07444066
-0.08932347 0.098829575 0.16888686 0.03833971 0.14389099 0.31315723 0.2953158 -0.5041622
0.21214242 -0.09693987 -0.07488811 -0.2114044 -0.16719331 -0.16667894 -0.09539213 -0.033291876

fc1.weight f4 [128, 384]
00000000: c93d c4bc 4f8c f7bb 0d18 88bc ce30 efbb
00000010: 950d 30bd 17c9 ffbc 3408 bbbc b31a 173b
00000020: 7fd6 953d fd6d ea3c e9b0 853d ed4b bc3d
00000030: 785e 1fbd 0246 31bc ab4e fbbb 2f26 eb3b
00000040: d588 6a3c dada c0bc c7b2 7ebc 3417 08bd
00000050: a084 8c3b d49f d1bc e28c 47bd 06d6 8bbb
00000060: f98a 33bd 40ae d2bd bf67 1f3b b228 3a3c
00000070: cf97 d6bb 737d 68bd 32bc 0abd 77e6 0abd
00000080: b05c 893d a604 f3bd 5d52 89bd f891 643c
00000090: 5424 383d 29aa 8c3d 3fca a53c 23f9 9a3c
000000a0: 48ab 89bc 15a1 35bc 3840 41bd 7ebc 133d
000000b0: 9067 4a3c a198 a3bd 6288 eabc a2b8 b83d
000000c0: 46eb 3c3c 75ad 2c3a e03f 0339 c49a 123c
000000d0: 5c31 97bc 3430 483c 71c0 a9bc fafc c6ba
000000e0: c8be 1abc ed24 4a3b 2d52 e5bb acae 9bbc
000000f0: 9efb b6bb 6b93 49bc 6dd4 993b 6b0f 7c3b
00000100: 5525 77bc 9a5a 973c 25d0 213b 7cb5 92bc
00000110: 4e0f 62bc 49c0 853a 3082 8abc 9af6 8dbc
00000120: 3f74 643c defd dbbb f0ce 7a3b f66a 793c
00000130: bf03 643c 00e4 a93b 8489 a0bb b049 743c
00000140: 1139 de3d 22e6 283d f340 be3d 1e09 ce3d
00000150: 2b5d ac3d e0fa 2c3d b246 cebb 7652 223e
00000160: df4b 8c3d 7964 2bbd d5a6 b1bd 1e07 eebd
00000170: ea91 f43c 7768 81bc 0795 99bd db62 98bd
00000180: f729 ea3c 9f33 8d3d 24b8 3b3d 062c ff3d
00000190: ce62 b4bd ba97 4bbd e814 c6bd 0ecc afbb
000001a0: d4ce 3ebe 3fde 07bd dd73 6ebd ecdd 99bb
000001b0: 69e5 91bb f77d 1d3d 74ee 45bd 269b c7bc
000001c0: 54ad 20bd 9db4 89bd 67de 693d efda 65bd
000001d0: 1b42 52bd f00f d1bd 5df6 2a3e 5b28 223d
000001e0: a9be a03c 8a5b 4e3d 2c3e 3dbb fd2e e73c
000001f0: f2f8 bf3b 26b7 1ebc 596b ac3c 1bb8 73bb
00000200: dfee 30bc 78a2 c63b 4049 2a3c c39c a6bc
00000210: b0a8 9a3b 1ea5 303d 7daf a6bd ef6b 983c
00000220: f7c9 813c 302a d03b 6d07 44bd a290 a03c
00000230: d168 353c 9c9d c13d ce4d 86bd 44b7 8b3d
00000240: 913d 96bd 8e2c 30b9 11cc 493b f7db eebc
00000250: a100 88bc 7d83 0dbd c1b3 863c 1351 91bd
00000260: b55b d2bc 4cf7 4dbd 3143 99bd e463 1abd
00000270: 4dfd 26bd ecf7 903c 3f0c acbd fb80 b0bb
00000280: 634c e0bb 06b4 d4ba e5ed 15bd 9422 563d
00000290: 1836 453b aaba 3e3d 6d14 633d 00ff 873d
000002a0: 983d 123c 881e 433c 48e2 9c3c e970 943c
000002b0: 02f6 1e3d 691f 5c3c 84dc 70bc 1ac5 073a
000002c0: cda3 a0bd e9dd 9fbd 4940 72bc 2217 dbbd
000002d0: 82f1 d9bd 6bcd 12be b789 d8bc d248 b2bd
000002e0: d273 2fbd 4c48 fcbc 0e3b 3a3d d301 3cbe
000002f0: fc8a c63c a23d f3bc 2857 183c 3f58 0e3d
00000300: 6ca2 ab3c cce1 8fbc 6a71 3d3d a7ac 49bc
00000310: 833b 333d a622 b73d 6b98 c8bd b8b9 5fbd
00000320: 6fa6 09bd dc14 cf3c 7f81 36bc 45c7 173d
00000330: 931c 17bd a0b6 5d3d e34e 42bd 0ce0 0cbc
00000340: ba8c b43d a7c7 d639 5f9a 263d 61d4 593d
00000350: 2ae3 0dbd f9c5 f0bc 2066 bb3c 491d f13c
00000360: 62f1 a5bb a2cd 03bd 2398 94bc 4b63 2cbc
00000370: 472b f3bd 7e69 f0bb dabe 3abb 201a e4bd
00000380: 83bf 423d c873 3a3d 9e22 ed3c f700 16bc
00000390: 504a 03bd eeaa bcbd 881f 293c 9dde d83c
000003a0: 1e86 69bd 83c6 80bb 53ee 273e 906d 953d
000003b0: 4eb7 2d3d e214 eabd 874e 5b3e 2ec8 8bbd
000003c0: 5f45 283d f1ee 723c 642d a7bb fe58 673d
000003d0: 9796 243c 070d a33d 86d4 d4bd 862f 693d
000003e0: 96ba fa3c 70b2 89bd ac74 193d f57e c8bb
000003f0: 9a75 c0bb 3063 7d3d 9731 833d 169e 0cbb
-0.023955243 -0.007554568 -0.01661303 -0.007299519 -0.042981703 -0.031223817 -0.02283106 0.0023056685
0.073163025 0.0286169 0.065278836 0.09194169 -0.03890845 -0.010819914 -0.00766929 0.0071761827
0.01431485 -0.023541857 -0.0155455535 -0.033225253 0.004288271 -0.025588907 -0.04871834 -0.004267457
-0.043833707 -0.10287142 0.0024323312 0.011362242 -0.0065488587 -0.056760263 -0.033870883 -0.033911195
0.06707132 -0.11866121 -0.06705163 0.013950817 0.04495652 0.06868393 0.02023804 0.018917626
-0.016805306 -0.011085768 -0.047180384 0.036068432 0.012353793 -0.07988096 -0.028629486 0.09019591
0.011530703 0.00065871264 0.00012516929 0.008948032 -0.018456154 0.012218524 -0.020721646 -0.0015181594
-0.0094449 0.0030844763 -0.0069983215 -0.019004188 -0.0055841943 -0.012303214 0.0046945126 0.0038461338
-0.015084584 0.01847582 0.0024690714 -0.017908804 -0.013797594 0.00102044 -0.016907781 -0.017329503
0.013943731 -0.006713613 0.0038270317 0.015223255 0.013916909 0.0051846504 -0.0048992056 0.014910147
0.10850728 0.041235097 0.09289732 0.10060333 0.08416208 0.04223144 -0.0062950486 0.15851769
0.06850409 -0.041843865 -0.08674399 -0.11622451 0.029854733 -0.015796883 -0.07499128 -0.0744073
0.028584464 0.068946116 0.045829907 0.12459569 -0.08807908 -0.049705245 -0.09671956 -0.0053649014
-0.18633586 -0.033170935 -0.058215965 -0.0046956446 -0.0044523966 0.038450208 -0.04832311 -0.024365973
-0.0392278 -0.067239024 0.057096865 -0.056116994 -0.051332574 -0.10208118 0.16695543 0.039589267
0.019622164 0.050380267 -0.0028876169 0.028220648 0.005858534 -0.009687221 0.021047281 -0.0037188593
-0.010799139 0.0060618483 0.010393441 -0.020338422 0.004719816 0.043126218 -0.081389405 0.018606154
0.015843375 0.0063526854 -0.047858644 0.019600216 0.011072353 0.0945389 -0.06557809 0.068220645
-0.073359616 -0.00016801266 0.00307918 -0.029157622 -0.016601862 -0.034549225 0.016443135 -0.07095542
-0.025678495 -0.05028467 -0.07483519 -0.03769292 -0.04076891 0.017696343 -0.08400773 -0.0053864694
-0.0068450435 -0.0016227968 -0.036603827 0.05227907 0.0030092057 0.046564735 0.0554394 0.06640434
0.008925818 0.011909135 0.019150868 0.018120246 0.03880883 0.013435223 -0.0147010125 0.0005179212
-0.078437425 -0.07805998 -0.014785835 -0.106977716 -0.10641767 -0.14336173 -0.026432855 -0.087052956
-0.042835064 -0.030796193 0.045466475 -0.18360071 0.024236195 -0.029692475 0.009298123 0.034752127
0.020951472 -0.017563723 0.04625074 -0.01230923 0.043757927 0.089421555 -0.097946964 -0.054620475
-0.03360599 0.025278501 -0.011139273 0.037055273 -0.036892485 0.054129243 -0.047438513 -0.008598339
0.08815904 0.00040966013 0.040674563 0.053181056 -0.03464047 -0.029391276 0.022875845 0.02943291
-0.0050641755 -0.03217853 -0.01813895 -0.01052172 -0.11873489 -0.0073367944 -0.0028495104 -0.111377954
0.04754592 0.045520574 0.02894717 -0.0091555035 -0.03205329 -0.0921229 0.010322459 0.026473338
-0.05701267 -0.0039299144 0.16399507 0.07296288 0.04241114 -0.11429764 0.21416675 -0.068252906
0.041081782 0.014827476 -0.0051018465 0.056481354 0.010045669 0.07961469 -0.10392098 0.056930088
0.03060655 -0.067234874 0.037464783 -0.00611865 -0.005873394 0.06186217 0.06405943 -0.0021456531

fc1.bias f4 [128]
00000000: 7d8f 7e3c 1570 18bc df63 0c3d bb7d 183d
00000010: cc65 bc3d 2779 b4bc 1278 403c 1600 3cbd
00000020: 6608 7bbd d749 8abd 1a8d 98bd f73b 133a
00000030: 08c7 bbbd 7900 babc 67fd a4bc 9cd0 11bd
00000040: 5504 d93b e580 dfbc 5fcc c2bd 7525 d5bd
00000050: 6533 d93d 3de3 fdbc 3dad 8bbc 6221 53be
00000060: 6d2f a5bc fbcf 3d3d 377e 963d 99ae 37be
00000070: 0057 9bbd 92af a23c 47f4 ebbd 1cf5 91bd
00000080: 88cd d0bc d29c b1bc 271b abbc 2e9a e2bd
00000090: f635 09be 598e 1abe 772e 6dbb caec dc3d
000000a0: c715 193d e9bc 8abd 317f 32be 74a4 d23c
000000b0: 63e6 1fbd fa90 793c 08d4 823c 2eac dabc
000000c0: 9ca2 3a3d beed 8cbe b950 27bd 1982 13bc
000000d0: 847e 32be 7ab5 e0bd 1f0d c33d 40a5 f3bd
000000e0: e774 243d 0ebc 61bb ee27 cabd 6bda c93c
000000f0: 57ff 07bd bc8e f33c 9f50 8c3c 15c4 43be
00000100: 1df4 413b 4e9f 403c 34ca 1cbd ecae 30bb
00000110: d691 b1bc a0f7 393e 4049 ccbd 517d 67bd
00000120: d91d 97bd 1f35 f4bd 7495 b63c d49a c93a
00000130: f7ec 64bd 7ae2 09be 8443 e53d 1efb 8b3b
00000140: c56c 4a3e b0ff c53c 867e 07be fdad 92bc
00000150: f4f0 b93d 8f71 663c 0850 693d 887e 20bd
00000160: eb21 09bd a4af 93bd d06d 78be 0600 83bd
00000170: d953 07be 6dac 36bd 9b58 733d 3eef 05be
00000180: 0c7c cabd 5476 6bbd 4388 883c d31b cabd
00000190: cafc ecbd 4de0 90bd b2b9 b73d 71f8 9bbd
000001a0: de63 27be d1a9 403e e857 d5bc 88d1 83bd
000001b0: 6b9b 813d 78fd 583d dd54 29bd bd96 71bc
000001c0: 94a7 f23d abf9 2abe bd58 94bd 6501 d73b
000001d0: be23 2abd 3469 a8be 201c 073e 7fd5 4bbe
000001e0: 2134 a5bd 975b 38be cc3c 8cbd 5ae1 ecbc
000001f0: f074 11bc cbef 1bbb abad b8be 6f2a b5bd
0.01553714 -0.009304066 0.034274932 0.03722928 0.09199104 -0.022030426 0.011747377 -0.04589852
-0.061287306 -0.06752365 -0.07448788 0.00056165404 -0.091688216 -0.022705304 -0.020140363 -0.035599336
0.006622831 -0.027283141 -0.09511637 -0.10407535 0.10605506 -0.030992145 -0.01705038 -0.20618203
-0.020164216 0.046340924 0.07348292 -0.17937697 -0.07584953 0.01985911 -0.115212016 -0.07126829
-0.02548863 -0.021681223 -0.02088697 -0.11064564 -0.1339949 -0.15093364 -0.0036191025 0.107873514
0.037374284 -0.06774313 -0.17431332 0.025713183 -0.039038073 0.015232319 0.015970245 -0.02669343
0.045565233 -0.27525133 -0.040848467 -0.009003186 -0.17431074 -0.10972114 0.09523987 -0.11896753
0.04015055 -0.0034444365 -0.09870897 0.024640283 -0.033202495 0.029731147 0.017128287 -0.19117768
0.0029594966 0.011756731 -0.038278773 -0.002695973 -0.021675985 0.18160868 -0.09974909 -0.056515995
-0.0737874 -0.119241945 0.022288062 0.0015381225 -0.05589005 -0.134653 0.11194518 0.004271879
0.19768055 0.024169773 -0.13231859 -0.01790523 0.09079161 0.01406516 0.05696109 -0.03918317
-0.033479612 -0.07211235 -0.2426064 -0.06396489 -0.13215579 -0.04459803 0.059410673 -0.13079545
-0.09886941 -0.057485893 0.016666537 -0.09868588 -0.11571653 -0.07074032 0.089709654 -0.07615746
-0.1634669 0.1881478 -0.026042894 -0.06436449 0.06328472 0.0529761 -0.041340698 -0.014745411
0.11848369 -0.16696803 -0.07243488 0.0065614455 -0.041537993 -0.32892764 0.13194323 -0.19905661
-0.080665834 -0.18003689 -0.068475336 -0.02891605 -0.008877978 -0.002379405 -0.36069998 -0.08845984

fc2.weight f4 [32, 128]
00000000: b9d7 f2bd 16ac 23bd 0b2f d1bd 7fb9 a2bd
00000010: d972 b3bd 27bb 44bc d35e ebbd ca48 f8bb
00000020: 732d 9ebc cc1f 20bd 426d 143d d16d ea3c
00000030: d826 babc b750 823d 7317 02bb d495 98bd
00000040: cb35 8a3c bc76 21bd c137 16bd 6975 623c
00000050: 3f28 79bc c599 fb3d 047b 55be dc74 4bbd
00000060: 8996 2f3d 6e4c b5bd c867 1bbd c5ce d6bd
00000070: 2383 53be 3e17 fb3a 7d05 99bc c5ae 92bd
00000080: 5069 1abe 615b c8bc 37e0 f9bc b2d0 59be
00000090: 0c0f c33c 3e37 9f3c eb18 b6bc 985b 9fbc
000000a0: 5a44 2e3d 2f41 2abc 917b a5bd e824 e4bd
000000b0: bf9a 2abe c34e aabd 55bd a1bb c6d8 633c
000000c0: 2ae6 623d d089 30be 8a41 523c 6be1 e7bc
000000d0: 4480 403c 2738 13bd 821d b83c 6047 f53b
000000e0: d502 99bc 1a2d b03b a41f 1c3d aa1e 61bc
000000f0: 25b3 c0bd fd71 4f3d 4944 253a 1b32 2cbd
00000100: 5aea e8bd e9b5 01bc 2bc1 25bd 59ce ddbd
00000110: 653c c0ba 9ac7 bdbd 6194 8a3d c9cb a9bb
00000120: 6dfe bb3b f91c 48bc abf9 edbd 2071 3a3c
00000130: 3cdb 233d effc a4be e034 87bd 1c96 e5bd
00000140: 9464 c9bc 390f 3c3d 2b06 5d3c f60c 84bc
00000150: f336 673c 8eae bbbc 9de6 a13c 951b 48bd
00000160: 89d0 b4bc c28e 25be 4a79 04bd a6d9 fcbc
00000170: 78e4 b8bd 56c4 23bc 170b 4ebd 1c98 b13d
00000180: bb93 8cbd 7013 ac3c 1ae4 ebbd c706 e9bd
00000190: b253 65bd e851 a33c 4a55 d73d 801b 8bbb
000001a0: d57e acbc 38e9 81bd e843 eabd 007e 4cbd
000001b0: 8fc8 29bd a64b 80bd b7c1 b4bc 17ce 63bc
000001c0: 08fd 11be 4ae6 0abc ad3b b83d f376 fe3c
000001d0: 75ba ab3b 46f0 aabe 5893 8fbd 7f85 57be
000001e0: f046 59bd 48db 10be ad7d 87bd ba8c 57bd
000001f0: 35ce 19be 2b56 483c 005a adbe 2614 473d
00000200: 5b1b 103d 66cb 8c3b 6fe5 6b3d 52c4 ba3b
00000210: 2b4b c83c 6e63 96b9 34f4 f23c 8ea6 cbbb
00000220: d8c8 c63c 6064 b5bc ecad 4d3d 9e85 983d
00000230: 781e d73d 6cb0 043d 0e66 c8bc eb67 983c
00000240: 4a7e 96bb 7e10 0ebc bb65 ef35 6ac9 1d3d
00000250: 98f3 993d 9b16 64bd 57ba 683d 5877 c03d
00000260: e046 aa3c 07b2 36bc 2980 00bb 3fe4 9abc
00000270: fd45 a03c d222 8f3c a140 193c c7d8 093d
00000280: 2b89 c73c bfc8 85bc 7a3d 843d 2a43 8f3d
00000290: f903 733c 0dfc b23d 87ca 22bc 3b61 673d
000002a0: 5987 82bc cbc6 a23c 3bac b4bc ae1d ac38
000002b0: ef1d 203d 0717 213d bb06 22bd 5ba5 b63c
000002c0: 6813 0abb f0c5 963c 7244 f63c 1785 dc3d
000002d0: 9751 b93c a8ad 33bb 52d4 6dbc 1807 edbc
000002e0: ba25 19bd 4648 7bbc f313 813d e64b bd3d
000002f0: 9d89 02bc 565e f6bc 6201 553d 19a6 233c
00000300: 2f77 ce3d 4017 cdbc 5585 a8bc 21c4 093e
00000310: 0a97 0f3d b2b8 4539 682e a7bc ad24 f43c
00000320: 5fe1 ce3c d382 9c3c 92dc 513c f66f 14bc
00000330: ead2 463d 176d a13d 7680 33bb f35a bf3d
00000340: eced ffbb fb6c 013d edcf da3a eca1 583c
00000350: da06 423d a48e edbc d91f 3dbd d389 143d
00000360: d34c b0bc e947 b63d 3b4c d63d 8d39 773d
00000370: 5f84 06bd ee17 3e3d b999 74bc 6765 5a3c
00000380: 39ac bbbc 5091 993d 708a a03c e225 3ebb
00000390: 3554 97bc 3a9f 65bc 73a3 1bbc 887e cdbb
000003a0: 6b8f a2bd 0034 ddbc 0c87 013e 4526 81bd
000003b0: 90a3 093d a208 d03d 137d b6bc 39c9 0d3d
000003c0: 598b 0d3e 4218 0c3e 43cd b23b 3542 3d3c
000003d0: ffc3 513d aecf 443d 110c 463d 7740 723d
000003e0: d92d b9bb 14ca a43d f619 a93d 1c2a 1abd
000003f0: f87f 763d 3577 613d 020c ab3d 7f07 a63d
-0.11857552 -0.039959036 -0.10214051 -0.07945537 -0.0876214 -0.012007511 -0.11492696 -0.0075770365
-0.019308781 -0.039092824 0.03623701 0.028616818 -0.0227236 0.063630514 -0.0019850403 -0.074504524
0.016871354 -0.039419875 -0.036674265 0.013821938 -0.015207349 0.122851886 -0.20847708 -0.049671993
0.04286817 -0.088524684 -0.03794077 -0.10488657 -0.20655493 0.0019156707 -0.018679375 -0.07162241
-0.15079236 -0.024457635 -0.030502422 -0.21271017 0.023810886 0.019435521 -0.022228679 -0.019452855
0.042545654 -0.010391518 -0.08080209 -0.11139852 -0.16660593 -0.08315804 -0.0049359 0.013906663
0.055395283 -0.17240071 0.012833009 -0.02830573 0.011749331 -0.035942223 0.022475008 0.007485315
-0.018678108 0.0053764703 0.038116112 -0.013740221 -0.09409169 0.050645817 0.0006304426 -0.04203997
-0.11372824 -0.007916906 -0.040467422 -0.10830373 -0.0014666436 -0.092665866 0.06766582 -0.005181764
0.005737117 -0.012213939 -0.11619886 0.01137951 0.040004 -0.32224223 -0.06601882 -0.11210272
-0.024584092 0.045912955 0.01349024 -0.016119462 0.014112222 -0.022910383 0.019763285 -0.04885443
-0.022072094 -0.16167739 -0.032342233 -0.030865502 -0.09027952 -0.009995541 -0.050303545 0.08671591
-0.06864115 0.021005362 -0.11518116 -0.11378246 -0.05598802 0.019936517 0.105143145 -0.0042452216
-0.021056572 -0.06343311 -0.11438733 -0.04992485 -0.041451033 -0.06264429 -0.022065027 -0.013904116
-0.1425668 -0.008477757 0.08995757 0.031062579 0.0052407333 -0.3338644 -0.070105255 -0.21047018
-0.053046167 -0.14146149 -0.06615768 -0.05262444 -0.15020068 0.012227575 -0.33857727 0.0486032
0.03518234 0.004296708 0.05759185 0.0056996727 0.024449905 -0.0002868431 0.02965746 -0.006214923
0.024265692 -0.02214259 0.050214693 0.074473605 0.10503858 0.03239481 -0.024462726 0.01860424
-0.0045926915 -0.008670924 1.7836495e-06 0.03852216 0.07517165 -0.05568562 0.056818333 0.09397763
0.020785749 -0.011150843 -0.001960764 -0.018907664 0.019564623 0.017472658 0.009353788 0.033654
0.024357399 -0.016331075 0.06457038 0.069952324 0.01483249 0.08739481 -0.009935982 0.05648921
-0.01593368 0.019870182 -0.022054782 8.2071274e-05 0.039091047 0.0393286 -0.0395572 0.022295645
-0.0021068696 0.01840493 0.030061934 0.107675724 0.022621913 -0.002741674 -0.014515953 -0.028934047
-0.037389494 -0.015337056 0.06302633 0.09242992 -0.00796738 -0.03007428 0.052003272 0.009988331
0.10081326 -0.0250355 -0.02057139 0.13453723 0.03505615 0.00018856188 -0.02040787 0.029802645
0.02525395 0.01910535 0.012808936 -0.009059897 0.048540987 0.07882135 -0.00273898 0.09343519
-0.007810345 0.031598072 0.0016694047 0.013222199 0.047369815 -0.02899868 -0.04617295 0.036264252
-0.021521008 0.089004345 0.104637586 0.06035762 -0.032841083 0.04640954 -0.014929228 0.01332984
-0.02290927 0.07498419 0.019597262 -0.002901428 -0.01847277 -0.014015013 -0.009499419 -0.006271187
-0.07937511 -0.027002335 0.12649173 -0.063061275 0.03360325 0.101578966 -0.022276437 0.03461573
0.13822688 0.13681129 0.005456598 0.0115514295 0.051212307 0.04804962 0.04835135 0.05914351
-0.0056512174 0.08046356 0.08256905 -0.037637815 0.060180634 0.055045325 0.083519 0.081068985

fc2.bias f4 [32]
00000000: c0b5 0abd 4a6e 8f3c cd53 353b 6a3b cf3c
00000010: b8a9 bebc 4d24 f039 a404 2a3b 5feb 713c
00000020: 1a35 ec3b 029a dfbb c763 47ba be3c 24bb
00000030: 26a6 2abd fe9e 013d 886e 1f3c bb76 8bbc
00000040: be53 c43c 7d49 b23c 6be0 9a3c 2805 9a3c
00000050: 6c4e debc 7652 e1bc cfcc c5bb 9859 8e3c
00000060: c61a 3338 9180 afbc 29a9 57bb 3b55 2ebb
00000070: e0d3 683c b0e9 bfbc 8eb7 983b d4a8 533b
-0.033864737 0.017508645 0.0027668357 0.025296886 -0.023274288 0.00045803413 0.0025942707 0.0147655895
0.0072084786 -0.006823779 -0.00076061155 -0.002506062 -0.041662358 0.031645767 0.009730943 -0.017024389
0.023965713 0.021763558 0.018905839 0.018801287 -0.027137004 -0.02750514 -0.006036378 0.017376706
4.270186e-05 -0.02142361 -0.0032907224 -0.0026601094 0.014210671 -0.02342686 0.0046605533 0.0032296674

momentum_buffer f4 [12, 6, 5, 5]
00000000: 73af fe37 5f5c 4737 047a f6b7 b849 a637
00000010: 3414 ccb7 888c 17b8 a6e0 3937 3d21 a2b7
00000020: 1a80 f437 45e8 ff35 598b a2b7 4e38 c8b7
00000030: 485d 9835 f807 5837 dae2 2fb8 996e 7d37
00000040: c02b b2b7 4b3e ac37 baa6 11b8 d482 4c37
00000050: 5057 c737 8891 06b8 651e f1b7 222f 9237
00000060: 0889 1eb7 2278 9936 7270 5a36 3b89 a1b7
00000070: 7154 fe37 8a22 2b37 0c91 6db7 ba3d 9bb7
00000080: 320c 8a37 fc82 4eb7 ed50 8537 e049 e937
00000090: 3079 ea37 9669 ce36 9093 f9b7 aee0 f3b7
000000a0: 6eb8 6837 0e74 2bb8 d9fa 0ab8 829b 8e37
000000b0: 8e43 83b7 b8ef 34b7 b2dd c637 e3b9 0ab8
000000c0: 1ee6 b037 3e11 88b5 9ad8 00b7 c7a2 0b38
000000d0: 299b a5b7 8720 d4b6 20f2 c437 6b20 dfb7
000000e0: 36dc 9436 bd81 6fb7 2c7c 1a37 46f9 19b8
000000f0: 6439 5936 0eaf b2b6 e0da a136 60fe 0e37
00000100: 48ba af37 5ccb 54b6 66ae 2fb3 75ab 5d35
00000110: 949f 82b7 4fd0 8537 5acb 1eb8 fc94 b8b7
00000120: 3bb8 1fb7 5471 11b7 09ac adb7 32c8 77b7
00000130: 729b 7836 5a2d 0137 60ea efb5 0651 38b8
00000140: 5b3c aab7 9283 9cb7 12ec d3b7 c4ea a0b6
00000150: 08b0 aa37 785a 4237 2c32 b236 1776 31b7
00000160: 8733 8637 37cb d0b6 d089 1837 e49e 7fb7
00000170: e235 99b7 c2da 11b8 e558 85b7 1b45 8bb7
00000180: cd85 8937 f670 cc37 e441 9a37 a0b5 31b7
00000190: 4b91 c2b7 3088 d736 b297 53b7 b5e1 5eb6
000001a0: ab66 4037 cacd 11b8 7435 14b8 ff09 e6b7
000001b0: f148 09b8 4580 adb7 058c 02b8 6934 b537
000001c0: 8e1f 0937 d7fe 25b8 d712 f4b6 eb3b 5837
000001d0: ff8e fbb7 d3ab eeb7 3fd4 ab37 c2a4 ffb7
000001e0: 6b37 4f37 5c2b 23b8 0255 9137 f22f e0b7
000001f0: c449 8837 9d48 9f37 8cf3 04b6 9e93 e537
00000200: 2221 f8b7 fc4a 06b6 f8b1 4b37 a4ba 2cb7
00000210: 9853 07b8 a37e 1f37 cda1 33b7 a5b6 c037
00000220: 6bc3 26b8 507e c737 c494 bf36 8fc5 d037
00000230: 0f3b 73b7 b8df 11b8 83c7 07b8 cb6f 2bb7
00000240: 416b 3db8 22b8 ceb7 fe59 fbb7 147e 9737
00000250: 135d c2b7 3dff 0135 4096 b239 105e 34ba
00000260: d36d aebc 401d fbbc 2076 b5bc 2029 94bb
00000270: 4db5 fbbc f038 35bd da36 56bd 9296 f0bc
00000280: 9e2d 4bbc 1975 2dbd 5396 5bbd ca95 80bd
00000290: 88c3 3fbd 4a5d 85bc 3a32 18bd 1df1 5fbd
000002a0: 8435 65bd f56e 3abd ce5a 45bc ba29 0abd
000002b0: e9b4 28bd a071 14bd e595 11bd a0f1 87ba
000002c0: e0c2 ea38 f372 98bc 163d ddbc a9fc a4bc
000002d0: 0a7f 97bb 1da4 ddbc 2412 1bbd eda6 38bd
000002e0: e473 c8bc f669 2abc a064 15bd b2a0 35bd
000002f0: 9a75 57bd ee56 1fbd 04b1 63bc 49dd fdbc
00000300: 564a 37bd 8df2 39bd 9e4a 17bd 580f 38bc
00000310: dd18 f8bc b62c 0ebd 1ad9 edbc 2d5d f0bc
00000320: 4cbe 5cbb c012 f238 1ab6 89bc 8221 cabc
00000330: c801 9ebc 0698 bdbb c185 d2bc 6de3 0abd
00000340: 5a58 26bd f8d1 b8bc c041 24bc 8007 09bd
00000350: 108b 1abd c4b5 3cbd a6fd 0dbd 0bf3 51bc
00000360: c3e6 debc 2ca9 1bbd 549e 1dbd 1d40 04bd
00000370: 2785 3ebc 96d8 ebbc ce04 ffbc e872 d0bc
00000380: c581 d6bc 8d04 823c d35b 523b 3427 0cbd
00000390: 3a87 4dbd c66a 0bbd a74d 683c 584b e6bc
000003a0: 198b 7dbd 6ab4 9ebd 326e 5ebd d441 a23b
000003b0: 728d 35bd 8e97 a9bd e805 d7bd f67d b6bd
000003c0: fefe 2dbc 9f56 40bd f94b aebd 5f75 d5bd
000003d0: 46fd bebd 1627 6cbc 93cf 4abd c24a 8fbd
000003e0: 478f 97bd 1c24 99bd 3f19 0f3c f80f 1a3c
000003f0: fdbd 76bc 8935 fabc 7cad d0bc 640c 523b
3.036086e-05 1.1882831e-05 -2.9382303e-05 1.982307e-05 -2.4328103e-05 -3.6132085e-05 1.1079164e-05 -1.9327383e-05
2.9146719e-05 1.906658e-06 -1.9376794e-05 -2.3868077e-05 1.1352031e-06 1.2876459e-05 -4.1934523e-05 1.5105726e-05
-2.1239626e-05 2.0533005e-05 -3.472597e-05 1.2189808e-05 2.3763307e-05 -3.2083626e-05 -2.8743592e-05 1.7426504e-05
-9.449439e-06 4.5737406e-06 3.2549983e-06 -1.9256599e-05 3.031848e-05 1.0200436e-05 -1.4160072e-05 -1.8506184e-05
1.645656e-05 -1.2309054e-05 1.589252e-05 2.7810165e-05 2.7951406e-05 6.1515702e-06 -2.9751827e-05 -2.9072482e-05
1.38712185e-05 -4.087766e-05 -3.3135384e-05 1.7000133e-05 -1.5647875e-05 -1.078465e-05 2.3706674e-05 -3.3074884e-05
2.1087992e-05 -1.0137808e-06 -7.679826e-06 3.329178e-05 -1.9741785e-05 -6.321879e-06 2.3477769e-05 -2.6598767e-05
4.4363796e-06 -1.4275717e-05 9.208026e-06 -3.6710197e-05 3.2368926e-06 -5.3251924e-06 4.8236543e-06 8.523086e-06
2.094837e-05 -3.1708832e-06 -4.0903977e-08 8.257842e-07 -1.5571517e-05 1.5951837e-05 -3.785952e-05 -2.2003886e-05
-9.520033e-06 -8.66906e-06 -2.0703317e-05 -1.4768959e-05 3.704536e-06 7.699558e-06 -1.78751e-06 -4.3944478e-05
-2.0293684e-05 -1.8657916e-05 -2.5263089e-05 -4.795702e-06 2.034755e-05 1.1584365e-05 5.310654e-06 -1.0577517e-05
1.5998039e-05 -6.2225404e-06 9.091993e-06 -1.5236179e-05 -1.8264112e-05 -3.4774428e-05 -1.589623e-05 -1.6602271e-05
1.6393979e-05 2.4371297e-05 1.8388913e-05 -1.059231e-05 -2.319426e-05 6.4233536e-06 -1.2611899e-05 -3.3211957e-06
1.1467996e-05 -3.476235e-05 -3.533573e-05 -2.7422791e-05 -3.2731277e-05 -2.0682937e-05 -3.112482e-05 2.1601287e-05
8.173183e-06 -3.9576404e-05 -7.27396e-06 1.2888554e-05 -2.998812e-05 -2.8451823e-05 2.0483623e-05 -3.047509e-05
1.23510645e-05 -3.890261e-05 1.7324932e-05 -2.6725207e-05 1.6246813e-05 1.898809e-05 -1.9811296e-06 2.7367667e-05
-2.9579332e-05 -2.0011203e-06 1.21411795e-05 -1.0295455e-05 -3.226436e-05 9.506623e-06 -1.0706904e-05 2.2973234e-05
-3.975948e-05 2.3781467e-05 5.709562e-06 2.4887528e-05 -1.4497679e-05 -3.477905e-05 -3.2372318e-05 -1.0218423e-05
-4.5161e-05 -2.4642857e-05 -2.9963438e-05 1.8059312e-05 -2.3169943e-05 4.8427665e-07 0.0003406275 -0.00068804715
-0.021292603 -0.030653596 -0.022151053 -0.004521504 -0.0307261 -0.044243753 -0.052298404 -0.029368673
-0.012401013 -0.042348 -0.053610157 -0.0627857 -0.046817333 -0.016279835 -0.037157275 -0.054673303
-0.05595924 -0.045515973 -0.012045575 -0.0337312 -0.041188154 -0.036241174 -0.03554334 -0.0010371692
0.00011194288 -0.0186095 -0.027006667 -0.020140009 -0.0046232985 -0.027055794 -0.037859097 -0.045081068
-0.024469323 -0.01040124 -0.036472917 -0.044342704 -0.052602388 -0.038901262 -0.013897184 -0.030989306
-0.044748627 -0.04539733 -0.036936395 -0.011234127 -0.030285293 -0.03471061 -0.029034186 -0.029341305
-0.0033682762 0.00011542952 -0.016810466 -0.02467418 -0.019287959 -0.005785945 -0.025698544 -0.033908296
-0.040611602 -0.022561058 -0.010025442 -0.03345442 -0.037730277 -0.046071783 -0.034665726 -0.012814294
-0.027209645 -0.03800313 -0.03848107 -0.032287706 -0.011628426 -0.0287898 -0.03113022 -0.025445417
-0.026184926 0.01587131 0.0032098189 -0.034217075 -0.05017779 -0.034037374 0.01417867 -0.028112099
-0.061900232 -0.07749255 -0.05430431 0.004951695 -0.044324346 -0.0828086 -0.104991734 -0.08910744
-0.010619877 -0.04695761 -0.085105844 -0.104227774 -0.09325652 -0.014413616 -0.049514364 -0.06996681
-0.07400375 -0.074775904 0.0087340465 0.009403221 -0.015059945 -0.030543106 -0.025473349 0.0032050842

momentum_buffer f4 [12]
00000000: 2608 a1b8 9cf9 5cbe ebc9 6ab8 e25b 6b3c
00000010: cd9b 6dbd 7cbe 31b9 d801 9dbe c07d 333e
00000020: 3294 153e 7e32 da3e 48cf 5ebe 6247 603d
-7.678596e-05 -0.21579593 -5.5978e-05 0.014365168 -0.05800991 -0.00016950996 -0.3066547 0.17528439
0.14607313 0.42616647 -0.21758759 0.054755576

momentum_buffer f4 [24, 12, 3, 3]
00000000: bb0b c2b7 469b 0e38 ce2d 9c36 11d9 ccb7
00000010: dc1a 1d35 eb2c 8837 2c71 ebb7 28dd fdb7
00000020: ea09 15b8 50d9 d43a f5b3 943b c0e8 49ba
00000030: 2297 19bb fbbb 13bb 5c92 2fbc 6114 1fbb
00000040: da1b dcbb 86b4 74bc a902 e937 583a 32b7
00000050: f77b 12b7 597d 5237 ec82 7337 34f5 2637
00000060: b0fb 6137 bab9 2735 caf0 0038 e24a 1cbb
00000070: 5b5f afbb b39f 01bb 0cb9 acbb 6c0b 33bc
00000080: 0c39 3bbc 2ab1 d23a 965e f7bb 3a68 34bc
00000090: be15 cdbb c2c4 2b3b 0000 66b6 beab 1fbc
000000a0: 952f 1abb 45e8 90bb cd5e acbb b28e 29bb
000000b0: 924f 4a3b fd18 44b7 0d11 8737 f390 f6b6
000000c0: bfe3 a5b7 82c0 16b7 aac2 1db7 0730 1db8
000000d0: b058 1938 fc0b 9a37 4aa5 173c 56f3 cd3c
000000e0: a580 983c 4116 c8bc 8241 53bc 6a9b 93bc
000000f0: a084 56bb 1058 763a 0c72 353b ac6a 86bc
00000100: 34cd 90bc f061 46bc f884 eaba 3cf3 e83a
00000110: f5cb 88bc 9cf5 0bbc c6e7 d5bb 5ccb 98bc
00000120: 2ac1 3fbc 1b8a 84bc 9a0b 2fbc 3c69 f2bb
00000130: 2b63 28bc 20c9 1abc 1cd8 393c 2753 3d3b
00000140: 70c9 09bc d6eb 97bb 8afb abba 2fec 9ebb
00000150: 8014 fbbb a47f 9cbb d445 48bc 2880 cdba
00000160: 61a2 efbb ef0f 93bb 2579 a0bb 6c45 69bb
00000170: 8c3c 5ebb 0bc9 8bbc ecf2 9abc e9d1 b9bc
00000180: d7ea bf3a 7ca5 a1bb 3b23 c1bb 1af3 b9bb
00000190: fef0 39bb b6bf b43a 1fdc 3dbc 2c44 10bc
000001a0: 7a05 95bb a40a b0bb 7833 fabb a08a 8bbb
000001b0: 8abf 1d37 016a 01b7 dfb7 a137 1462 b5b7
000001c0: 9135 fb37 42b7 cf37 1a52 b837 1201 19b8
000001d0: 6b00 e5b6 dac0 26bc 3a53 72bc a067 5ebc
000001e0: af52 2cbc 2ce9 71bc 8977 41bc 01d7 1dbc
000001f0: 4494 66bc 78fd 27bc 8b29 10b8 e057 85b7
00000200: 6dc9 06b8 1c53 b0b7 8a4e 9436 b4af 03b8
00000210: e7d7 0536 4dc5 d937 6de0 86b6 d43d 0dbc
00000220: 72d7 7cbc e213 5dbc 9493 0bbc d175 25bc
00000230: 3c4b 10bc 4fde 0a3c 4f3c 143c d034 4c3a
00000240: 0c5d f43a 185c 9e3b 353a 3abb 3634 cabb
00000250: 7677 6eba bd37 00bc 9cb1 0f3c b162 b0ba
00000260: 9c04 f7ba f631 1338 7aeb acb4 0075 1638
00000270: 04df 2d38 6aef 2838 0c98 2538 dcc5 bfb7
00000280: de36 bcb7 712d d4b7 785e 13bc 53c4 83bb
00000290: 909b 1abb 8082 fbbc 06bf d6bc 4c77 99bc
000002a0: 4c15 03bc 684f c2b9 96e4 32bb f4d5 9c3b
000002b0: 3649 dc39 48bf 50bc 7afe 313c 7ce0 c43b
000002c0: 4496 b2ba 903b 3ebb 942d 17bc 8c6c 3c3b
000002d0: 097b aabc 78ca 11bd 3402 06bd 2213 65bc
000002e0: 3027 efbc fe2b f6bc 5c5a 3e3c eac6 903b
000002f0: 9065 0b3a 02ec 8cbb d1e3 26bc 2c61 b1bb
00000300: 94ad a2ba 2444 29bc 1884 4ebc 9dc2 983b
00000310: b0ea 2bbb d9e8 89bb 04d7 2fbc 1ccd 4cbc
00000320: cc79 a7bb e781 69bc a9d4 81bc 588e 39bc
00000330: f012 9b3b 3d82 6b3b c85a acba 72b4 40ba
00000340: 2626 c0bb 66e0 ccbb 3702 6fbb d446 0abc
00000350: 1ed5 3dbc 67ce 0a3b b60b ff3a a25a 51bb
00000360: 8035 58b5 f434 a7b5 2b56 ac37 708c 38b7
00000370: e4f9 0a38 7031 12b7 000d 1538 ba1a c037
00000380: 142c 8f36 4207 ebbb 1689 bebb c47d afba
00000390: 8a8f 1bbc df74 dbbb 20e2 5bba ed35 6ebc
000003a0: daf2 04bc d61a 16bb 6317 c5b7 b225 85b6
000003b0: 1628 19b8 7154 14b8 3069 2338 ab4b ecb7
000003c0: ba2e 9137 4481 f3b7 157c cd37 3f79 9fbb
000003d0: aa5d ecbb 9f5f 95b9 7902 4dbc 929f 20bc
000003e0: f034 84ba 0ab2 f7ba d0fd 4dbb 1470 463a
000003f0: 34bb 96bb 7747 6fbc 9304 93ba 88cf 09bb
-2.3132065e-05 3.4000048e-05 4.6544947e-06 -2.4419774e-05 5.8526143e-07 1.623338e-05 -2.8066883e-05 -3.0262934e-05
-3.55336e-05 0.001623908 0.004538054 -0.0007702224 -0.002343603 -0.0022542465 -0.010716047 -0.0024273621
-0.0067171874 -0.014935618 2.7777003e-05 -1.0623211e-05 -8.731141e-06 1.254616e-05 1.4514411e-05 9.951462e-06
1.3469646e-05 6.2482616e-07 3.074183e-05 -0.0023848345 -0.0053519434 -0.0019779026 -0.0052710827 -0.010928016
-0.011427175 0.0016074528 -0.0075491173 -0.011011178 -0.0062586954 0.0026209806 -3.427267e-06 -0.009745536
-0.0023526896 -0.00442222 -0.0052603246 -0.0025872407 0.0030870182 -1.1688328e-05 1.6101194e-05 -7.3482456e-06
-1.9775585e-05 -8.985518e-06 -9.403253e-06 -3.7476446e-05 3.656064e-05 1.8363811e-05 0.009255717 0.025140446
0.01861603 -0.024424674 -0.012894036 -0.018018443 -0.003273286 0.00093972776 0.0027686385 -0.016408287
-0.017675973 -0.012108311 -0.0017892411 0.0017772685 -0.016698817 -0.008542445 -0.0065278737 -0.018651657
-0.011703769 -0.016179135 -0.010683918 -0.007397799 -0.01027755 -0.009447366 0.011343028 0.0028888674
-0.008409843 -0.004636268 -0.0013121229 -0.0048499326 -0.007662356 -0.004775958 -0.01222368 -0.0015678452
-0.0073130582 -0.0044879834 -0.004897254 -0.0035594357 -0.00339106 -0.017063638 -0.018914662 -0.0226831
0.0014642131 -0.0049330574 -0.0058940924 -0.005674732 -0.0028372402 0.0013790044 -0.0115881255 -0.008805316
-0.004547772 -0.005372362 -0.00763553 -0.0042584687 9.402525e-06 -7.71368e-06 1.9278317e-05 -2.1622553e-05
2.9946475e-05 2.4761659e-05 2.197274e-05 -3.647904e-05 -6.8247805e-06 -0.010177815 -0.014790351 -0.013574511
-0.01051776 -0.014765065 -0.011808285 -0.00963378 -0.014073435 -0.010253303 -3.4370965e-05 -1.5895755e-05
-3.2135682e-05 -2.1019536e-05 4.419887e-06 -3.139647e-05 1.9944216e-06 2.5960291e-05 -4.019638e-06 -0.008620698
-0.015432226 -0.01349351 -0.008519072 -0.01009889 -0.008807 0.008475854 0.009047582 0.0007789852
0.0018643453 0.004832756 -0.0028416042 -0.006170775 -0.00090967806 -0.007825789 0.008770373 -0.0013457147
-0.0018845978 3.509406e-05 -3.2208828e-07 3.587175e-05 4.1454114e-05 4.0277293e-05 3.948067e-05 -2.286111e-05
-2.2436896e-05 -2.529353e-05 -0.008994691 -0.0040212064 -0.0023591258 -0.030701876 -0.026214134 -0.018733643
-0.008000683 -0.00037061726 -0.0027296892 0.0047862474 0.00042016216 -0.0127409175 0.010863895 0.006008206
-0.0013625105 -0.0029027201 -0.009227175 0.0028751222 -0.02081062 -0.03559348 -0.032716945 -0.013981612
-0.02919349 -0.030050274 0.011618223 0.0044182437 0.0005317563 -0.0043005953 -0.010186152 -0.005413195
-0.001241135 -0.010331187 -0.012604736 0.0046618716 -0.0026232414 -0.004208666 -0.010732416 -0.012500074
-0.005110955 -0.014252163 -0.015848475 -0.011325441 0.004732482 0.0035935782 -0.0013149614 -0.0007351107
-0.0058639226 -0.0062523363 -0.0036469826 -0.008439738 -0.011586456 0.0021180154 0.0019458446 -0.003194489
-8.0544123e-07 -1.2457881e-06 2.0544123e-05 -1.0999953e-05 3.3134493e-05 -8.713789e-06 3.5536475e-05 2.290063e-05
4.2668635e-06 -0.007172496 -0.0058146818 -0.0013388922 -0.009494672 -0.0066972817 -0.0008387882 -0.014539224
-0.008114541 -0.002290418 -2.349512e-05 -3.968097e-06 -3.6515376e-05 -3.5364592e-05 3.8960192e-05 -2.8168628e-05
1.7307106e-05 -2.9028051e-05 2.4495685e-05 -0.0048667486 -0.007213314 -0.00028490738 -0.012512797 -0.0098036695
-0.0010086577 -0.0018897664 -0.0031431802 0.00075698015 -0.004599953 -0.014604441 -0.0011216573 -0.002102824

momentum_buffer f4 [24]
00000000: f0d3 a7bd 68a5 8fbd 3de3 00be 91ec e23a
00000010: 448f 92b9 3a5a acbd 246e 863c c0df 053d
00000020: 0522 82bc 36a0 33bd 144f 2d3d 3af1 8d3d
00000030: bc42 943d 7cff a73d 100b 41be 6bdc 97bd
00000040: 0070 f93c 6dec 81bb 0a83 3d3c 75ac 5db9
00000050: 2e9d 37bc 9999 763d 147a 51bc 84a2 a438
-0.08194721 -0.070139706 -0.12586685 0.0017312934 -0.0002795403 -0.08415647 0.016409941 0.032684088
-0.015885362 -0.04385396 0.042311743 0.06930776 0.07239291 0.08203027 -0.18851876 -0.07415088
0.030448914 -0.0039649517 0.011566887 -0.00021140448 -0.011206908 0.060205076 -0.012785453 7.8504e-05
